==========================================================================================
Layer (type:depth-idx)                   Output Shape              Param #
==========================================================================================
ResNet                                   [1, 200]                  --
├─Sequential: 1-1                        [1, 64, 64, 64]           --
│    └─Conv2d: 2-1                       [1, 64, 64, 64]           4,800
├─BatchNorm2d: 1-2                       [1, 64, 64, 64]           128
├─ReLU: 1-3                              [1, 64, 64, 64]           --
├─MaxPool2d: 1-4                         [1, 64, 32, 32]           --
├─Sequential: 1-5                        [1, 64, 32, 32]           --
│    └─BasicBlock: 2-2                   [1, 64, 32, 32]           --
│    │    └─Conv2d: 3-1                  [1, 64, 32, 32]           36,864
│    │    └─BatchNorm2d: 3-2             [1, 64, 32, 32]           128
│    │    └─ReLU: 3-3                    [1, 64, 32, 32]           --
│    │    └─Conv2d: 3-4                  [1, 64, 32, 32]           36,864
│    │    └─BatchNorm2d: 3-5             [1, 64, 32, 32]           128
│    │    └─ReLU: 3-6                    [1, 64, 32, 32]           --
│    └─BasicBlock: 2-3                   [1, 64, 32, 32]           --
│    │    └─Conv2d: 3-7                  [1, 64, 32, 32]           36,864
│    │    └─BatchNorm2d: 3-8             [1, 64, 32, 32]           128
│    │    └─ReLU: 3-9                    [1, 64, 32, 32]           --
│    │    └─Conv2d: 3-10                 [1, 64, 32, 32]           36,864
│    │    └─BatchNorm2d: 3-11            [1, 64, 32, 32]           128
│    │    └─ReLU: 3-12                   [1, 64, 32, 32]           --
├─Sequential: 1-6                        [1, 128, 16, 16]          --
│    └─BasicBlock: 2-4                   [1, 128, 16, 16]          --
│    │    └─Conv2d: 3-13                 [1, 128, 16, 16]          73,728
│    │    └─BatchNorm2d: 3-14            [1, 128, 16, 16]          256
│    │    └─ReLU: 3-15                   [1, 128, 16, 16]          --
│    │    └─Conv2d: 3-16                 [1, 128, 16, 16]          147,456
│    │    └─BatchNorm2d: 3-17            [1, 128, 16, 16]          256
│    │    └─Sequential: 3-18             [1, 128, 16, 16]          8,448
│    │    └─ReLU: 3-19                   [1, 128, 16, 16]          --
│    └─BasicBlock: 2-5                   [1, 128, 16, 16]          --
│    │    └─Conv2d: 3-20                 [1, 128, 16, 16]          147,456
│    │    └─BatchNorm2d: 3-21            [1, 128, 16, 16]          256
│    │    └─ReLU: 3-22                   [1, 128, 16, 16]          --
│    │    └─Conv2d: 3-23                 [1, 128, 16, 16]          147,456
│    │    └─BatchNorm2d: 3-24            [1, 128, 16, 16]          256
│    │    └─ReLU: 3-25                   [1, 128, 16, 16]          --
├─Sequential: 1-7                        [1, 256, 8, 8]            --
│    └─BasicBlock: 2-6                   [1, 256, 8, 8]            --
│    │    └─Conv2d: 3-26                 [1, 256, 8, 8]            294,912
│    │    └─BatchNorm2d: 3-27            [1, 256, 8, 8]            512
│    │    └─ReLU: 3-28                   [1, 256, 8, 8]            --
│    │    └─Conv2d: 3-29                 [1, 256, 8, 8]            589,824
│    │    └─BatchNorm2d: 3-30            [1, 256, 8, 8]            512
│    │    └─Sequential: 3-31             [1, 256, 8, 8]            33,280
│    │    └─ReLU: 3-32                   [1, 256, 8, 8]            --
│    └─BasicBlock: 2-7                   [1, 256, 8, 8]            --
│    │    └─Conv2d: 3-33                 [1, 256, 8, 8]            589,824
│    │    └─BatchNorm2d: 3-34            [1, 256, 8, 8]            512
│    │    └─ReLU: 3-35                   [1, 256, 8, 8]            --
│    │    └─Conv2d: 3-36                 [1, 256, 8, 8]            589,824
│    │    └─BatchNorm2d: 3-37            [1, 256, 8, 8]            512
│    │    └─ReLU: 3-38                   [1, 256, 8, 8]            --
├─Sequential: 1-8                        [1, 512, 4, 4]            --
│    └─BasicBlock: 2-8                   [1, 512, 4, 4]            --
│    │    └─Conv2d: 3-39                 [1, 512, 4, 4]            1,179,648
│    │    └─BatchNorm2d: 3-40            [1, 512, 4, 4]            1,024
│    │    └─ReLU: 3-41                   [1, 512, 4, 4]            --
│    │    └─Conv2d: 3-42                 [1, 512, 4, 4]            2,359,296
│    │    └─BatchNorm2d: 3-43            [1, 512, 4, 4]            1,024
│    │    └─Sequential: 3-44             [1, 512, 4, 4]            132,096
│    │    └─ReLU: 3-45                   [1, 512, 4, 4]            --
│    └─BasicBlock: 2-9                   [1, 512, 4, 4]            --
│    │    └─Conv2d: 3-46                 [1, 512, 4, 4]            2,359,296
│    │    └─BatchNorm2d: 3-47            [1, 512, 4, 4]            1,024
│    │    └─ReLU: 3-48                   [1, 512, 4, 4]            --
│    │    └─Conv2d: 3-49                 [1, 512, 4, 4]            2,359,296
│    │    └─BatchNorm2d: 3-50            [1, 512, 4, 4]            1,024
│    │    └─ReLU: 3-51                   [1, 512, 4, 4]            --
├─AdaptiveAvgPool2d: 1-9                 [1, 512, 1, 1]            --
├─Sequential: 1-10                       [1, 200]                  --
│    └─Linear: 2-10                      [1, 384]                  196,992
│    └─ReLU: 2-11                        [1, 384]                  --
│    └─Dropout: 2-12                     [1, 384]                  --
│    └─Linear: 2-13                      [1, 256]                  98,560
│    └─ReLU: 2-14                        [1, 256]                  --
│    └─Dropout: 2-15                     [1, 256]                  --
│    └─Linear: 2-16                      [1, 200]                  51,400
==========================================================================================
Total params: 11,518,856
Trainable params: 11,518,856
Non-trainable params: 0
Total mult-adds (M): 573.67
==========================================================================================
Input size (MB): 0.05
Forward/backward pass size (MB): 12.98
Params size (MB): 46.08
Estimated Total Size (MB): 59.11
…
